simple_snapshot_sepsis.pt (torch, 8649 bytes, 5 tensors)

fc1.weight f4 [32, 7]
0	0x3eb093bd	0.34487715
1	0xbe2c2e13	-0.16814451
2	0x3e852e89	0.26012066
3	0x3eb3be59	0.3510616
4	0xbe595d2e	-0.21226951
5	0xbde8043b	-0.11328932
6	0xbe5ead36	-0.21745762
7	0xbd891ae6	-0.066945836
8	0x3e26a486	0.16273698
9	0x3c6b2288	0.014351495
10	0xbebc9c10	-0.36837816
11	0x3e4aea0e	0.19815847
12	0xbda82473	-0.08210077
13	0x3e9e6669	0.30937508
14	0x3deec8a7	0.11659365
15	0x3ea4d81b	0.32196125
16	0x3e6b7c5b	0.22996657
17	0xbe4adb2f	-0.19810174
18	0xbebcdbaf	-0.36886355
19	0x3f2f9260	0.68582726
20	0x3e53b34c	0.20673865
21	0xbd88fce1	-0.06688858
22	0x3d6a316e	0.057176046
23	0xbd0d1a51	-0.034448925
24	0x3e22c50e	0.15895483
25	0x3e73c266	0.23804626
26	0x3f44e1ff	0.7690734
27	0xbeac8af6	-0.3369977
28	0x3ead2e05	0.33824173
29	0xbe04637f	-0.1292858
30	0xbc6754e9	-0.014119365
31	0x3ea9bcfe	0.33152002
32	0xbe8e2bea	-0.2776788
33	0x3f28d8b3	0.65955657
34	0xbe36a799	-0.17837371
35	0xbe3cd7b9	-0.18441667
36	0xbe443c88	-0.19163716
37	0xbd117cc3	-0.035519373
38	0xbeb1a8b3	-0.3469902
39	0xbe9097ea	-0.282409
40	0x3d9af414	0.075660855
41	0x3c673f71	0.014114247
42	0xbeb80f17	-0.35949013
43	0xbda4d6dc	-0.08048794
44	0x3e603729	0.21896042
45	0x3e2bae46	0.16765699
46	0xbe735f76	-0.23766884
47	0x3ebdd03f	0.37072942
48	0xbe518808	-0.20462048
49	0x3d3896f6	0.045065843
50	0xbea2e736	-0.31817025
51	0xbe2da406	-0.16957101
52	0xbe9de661	-0.30839828
53	0x3e1b2632	0.15151289
54	0xbd3f86bb	-0.04675935
55	0x3d25a528	0.04044071
56	0xbea7dfe3	-0.32788
57	0x3ddf41cd	0.109012224
58	0xbe0985f3	-0.13430004
59	0xbea4c091	-0.32178167
60	0x3ec00b6f	0.37508723
61	0xbcbee13b	-0.023300758
62	0xbe9cd72c	-0.30632913
63	0x3d0305c4	0.03198792
64	0x3d274738	0.040839404
65	0xbd03a7a9	-0.032142315
66	0x3e7ab8ae	0.24484512
67	0xbe0e1f9c	-0.13879246
68	0x3e6a5c0e	0.22886679
69	0xbe03e29f	-0.12879418
70	0x3e69235d	0.22767396
71	0xbe78edca	-0.2430946
72	0x3e9d114a	0.30677253
73	0xbded74d1	-0.115945466
74	0x3ec0ce98	0.3765762
75	0xbebb29fd	-0.36555472
76	0x3eabd124	0.33558
77	0xbea3369d	-0.31877604
78	0xbeb09b74	-0.344936
79	0x3e91e933	0.2849823
80	0xbe95b4c1	-0.29239467
81	0xbe9ac966	-0.3023178
82	0xbe80cd9a	-0.25156862
83	0x3ea21623	0.31657514
84	0x3eb71340	0.35756874
85	0x3e95f27c	0.29286563
86	0x3e5d6b52	0.2162297
87	0xbe9c99be	-0.30586046
88	0x3e7e2760	0.24819708
89	0x3eca5d8f	0.39524505
90	0xbd0267ae	-0.031837158
91	0x3e5f972d	0.21835013
92	0xbe267415	-0.1625522
93	0xbd9c9cdd	-0.07647107
94	0xbde3149d	-0.11087916
95	0xbe663f3a	-0.22485057
96	0x3d9b19a4	0.0757325
97	0xbdc37b6b	-0.095450245
98	0x3e8b4a9e	0.27205366
99	0x3ea79234	0.32728732
100	0x3eb0b856	0.34515637
101	0x3e34276e	0.17593166
102	0x3e9dba0e	0.3080601
103	0x3ed70eb7	0.42003414
104	0x3e4207a2	0.18948224
105	0xbe4bbafb	-0.19895546
106	0xbe32816b	-0.17432182
107	0x3e887d6e	0.26658195
108	0xbcc5f194	-0.024163045
109	0xbd65421e	-0.055971257
110	0xbea2ea59	-0.31819418
111	0x3eba5f80	0.36400986
112	0x3ec16553	0.37772617
113	0x3e39559f	0.18099068
114	0xbe803368	-0.2503922
115	0x3d59d329	0.053179894
116	0x3d3441c5	0.044008035
117	0x3e645e2d	0.2230155
118	0xbe3ef582	-0.18648341
119	0x3c923b26	0.01785047
120	0x3eb80464	0.3594085
121	0x3da043eb	0.07825454
122	0x3e1cd6cf	0.15316318
123	0xbcb7b562	-0.022425357
124	0x3f234343	0.6377451
125	0xbe249073	-0.16070728
126	0xbe44f711	-0.19234873
127	0x3d5a4e27	0.053297188
128	0x3daa0a80	0.08302784
129	0x3db4a8cc	0.08821258
130	0x3e86a2cf	0.26296088
131	0xbed3090e	-0.41217846
132	0x3e16803d	0.14697357
133	0x3e99fb22	0.30074412
134	0x3f053b2f	0.5204343
135	0xbdb6f4cf	-0.08933412
136	0x3c1bbe46	0.009505814
137	0xbe648b6d	-0.22318812
138	0x3f3427a6	0.70373
139	0x3c7a33cb	0.0152711375
140	0xbe0b94d3	-0.1363099
141	0xbe03fa37	-0.12888418
142	0xbea56d38	-0.3230989
143	0xbe4e7904	-0.20163351
144	0x3eb58213	0.354508
145	0x3e8a035e	0.26955694
146	0x3eb3f963	0.35151204
147	0x3dec9339	0.11551518
148	0x3edb2508	0.4280169
149	0x3e2025bf	0.15639399
150	0x3e94c0cb	0.2905334
151	0xbd9f60fd	-0.07782171
152	0x3d3cc9f4	0.046091035
153	0x3eacfe57	0.33787796
154	0xbe08d9ab	-0.13364284
155	0x3b672318	0.003526872
156	0xbea64498	-0.32474208
157	0x3e3129fd	0.17301174
158	0xbe7e2330	-0.2481811
159	0xbe788355	-0.24268849
160	0xbdbc0ec0	-0.09182501
161	0x3e033625	0.12813623
162	0x3ef6a962	0.48176104
163	0xbeacd523	-0.3375636
164	0x3e417ced	0.18895312
165	0x3de85411	0.113441594
166	0x3e0ab686	0.1354619
167	0x3e5b7dc6	0.21434698
168	0x3e3b3718	0.18282735
169	0xbee67238	-0.45009017
170	0x3dd48464	0.10376814
171	0xbd48b517	-0.049000826
172	0xbe39477e	-0.18093678
173	0xbeb13838	-0.34613204
174	0x3e8a8c64	0.27060235
175	0x3d035dd0	0.03207189
176	0xbe5e777f	-0.21725272
177	0xbe9fdba3	-0.31222257
178	0xbd2863b3	-0.041110706
179	0xbcd5ca64	-0.026097484
180	0xbd4aecf3	-0.04954238
181	0x3e460b29	0.19340195
182	0xbe8ca0d2	-0.27466446
183	0xbe0aaa3c	-0.13541502
184	0xbc1c8bf3	-0.009554851
185	0xbd84272d	-0.06452785
186	0xbd92e379	-0.07172293
187	0xbe4f7cee	-0.202625
188	0xbe8919b9	-0.26777437
189	0xbcec1816	-0.028820079
190	0xbed799c6	-0.42109507
191	0xbd98e40b	-0.07465371
192	0x3ea4661e	0.3210916
193	0x3e88c944	0.26716053
194	0xbf057bcc	-0.52142024
195	0x3ec234f2	0.3793102
196	0x3eaeb815	0.34124818
197	0x3ef7b9d8	0.48383975
198	0x3c4b8cdf	0.012423723
199	0xbe0c0cc2	-0.13676742
200	0xbe2121ce	-0.15735552
201	0x3de8bef3	0.11364546
202	0x3e3ae2fb	0.18250649
203	0x3ebb1c69	0.36545113
204	0xbe9478fb	-0.2899855
205	0xbeadcbb7	-0.33944485
206	0x3d854875	0.06507961
207	0xbe00f224	-0.1259237
208	0x3e57d4bc	0.21077245
209	0xbeb021db	-0.3440083
210	0x3d8ca040	0.06866503
211	0x3d239bd3	0.039943527
212	0x3e3b0b2a	0.18265978
213	0x3e8ef04e	0.27917713
214	0x3ea49ed4	0.32152426
215	0xbf227630	-0.6346159
216	0x3e2970de	0.16546962
217	0xbd83f619	-0.06443424
218	0xbebbaa1e	-0.36653227
219	0x3e9d91bd	0.30775252
220	0xbe31ffbd	-0.17382713
221	0x3deff6fd	0.11717031
222	0xbf3eb022	-0.7448751
223	0xbe846c02	-0.25863653

fc1.bias f4 [32]
0	0xbe8d329c	-0.27577674
1	0xbe7cef85	-0.24700744
2	0x3e3ff779	0.18746747
3	0xbd757dae	-0.05993431
4	0xbdb51d6a	-0.08843501
5	0xbe79a52c	-0.24379414
6	0x3bdbf8ed	0.006713024
7	0x3e329723	0.17440467
8	0x3eb58aad	0.35457364
9	0xbc3f9fd9	-0.0116958255
10	0xbe234b42	-0.15946677
11	0x3dabb600	0.08384323
12	0xbe0cca20	-0.1374898
13	0x3eb1c16a	0.34717876
14	0x3e8d30c3	0.27576265
15	0xbd947735	-0.072492994
16	0x3dcd77fa	0.10032649
17	0xbeb52221	-0.353776
18	0x3e9aee8c	0.30260122
19	0x3ec01c36	0.37521523
20	0x3d8eccb7	0.0697264
21	0x3e92ea77	0.28694507
22	0xbe446fe7	-0.19183312
23	0x3c5044f5	0.012711753
24	0xbe4332f1	-0.19062401
25	0xbe806c10	-0.25082445
26	0x3e187f9e	0.14892432
27	0xbe8a3df8	-0.27000403
28	0xbda0f775	-0.07859699
29	0xbe5dbf19	-0.21654929
30	0x3e97a600	0.29618835
31	0x3ea852bc	0.3287562

fc2.weight f4 [32, 32]
0	0x3e02568d	0.12728329
1	0xbe1adb2b	-0.15122668
2	0x3e2e0384	0.16993529
3	0x3d982afa	0.07430072
4	0x3e300328	0.17188704
5	0x3d40f26a	0.047106184
6	0xbd5e7c3c	-0.054317698
7	0x3e126435	0.14296038
8	0xbd4465a2	-0.047948487
9	0xbdb01a49	-0.085987635
10	0xbdeb6d57	-0.11495464
11	0xbdc73564	-0.0972698
12	0x3db53663	0.08848264
13	0x3d64a406	0.055820487
14	0x3d2f9b5c	0.04287277
15	0xbdda5832	-0.10661353
16	0x3df46876	0.11933987
17	0x3e708f18	0.23492086
18	0xbe20f758	-0.15719354
19	0x3eadc248	0.33937287
20	0xbdad42e2	-0.084600225
21	0xbcfd421b	-0.03091531
22	0x3e0cf93e	0.13766953
23	0x3e74c10f	0.23901771
24	0xbd94499d	-0.07240603
25	0x3d2add95	0.041715223
26	0xbd17b4de	-0.037037723
27	0x3da1d3c5	0.0790172
28	0x3da1a992	0.07893671
29	0xbe041190	-0.12897325
30	0xbd1b0086	-0.037842296
31	0xbd19b16f	-0.03752273
32	0x3dcbc85f	0.09950327
33	0x3dbb5240	0.09146547
34	0x3e9780a4	0.29590333
35	0x3d20dd3f	0.039273497
36	0x3d24fb2e	0.040278606
37	0xbd86f5c4	-0.06589845
38	0x3ddbb1e1	0.10727287
39	0xbdba0e0a	-0.09084709
40	0xbe0a05cb	-0.13478772
41	0x3dfafda7	0.122554116
42	0x3dc59bf2	0.09648885
43	0xbdf145a8	-0.11780864
44	0xbe0858b8	-0.13315094
45	0x3de49055	0.11160342
46	0xbd2f867a	-0.042852856
47	0xbcf2c729	-0.029635983
48	0x3db47077	0.088105135
49	0x3e7cc5cd	0.2468483
50	0xbdf9fc5f	-0.12206339
51	0x3e09ba17	0.13449894
52	0x3e20b345	0.15693386
53	0x3d0ae8a0	0.033913255
54	0xbc3fb14c	-0.011699986
55	0x3e5050a1	0.20343257
56	0x3d81da41	0.06340457
57	0x3c458754	0.0120561905
58	0x3d37c962	0.044869788
59	0xbe02c9ed	-0.12772341
60	0x3e1d6329	0.15369858
61	0xbe112fb7	-0.14178358
62	0x3caee9bf	0.021351693
63	0xbe86bd66	-0.26316375
64	0x3bc0ac36	0.005879904
65	0x3ce9cc50	0.028539807
66	0x3e684e1e	0.2268605
67	0x3dd7e35d	0.10541413
68	0x3e5823e5	0.21107443
69	0xbb9ab184	-0.0047208685
70	0x3de9911d	0.11404631
71	0xbd145b09	-0.03621963
72	0x3ca417ee	0.020030942
73	0xbdfcb4c4	-0.12339166
74	0xbd5bb8fc	-0.05364321
75	0xbdca9495	-0.09891621
76	0xbdbfd85e	-0.09367441
77	0xbd40451b	-0.046940904
78	0x3d8e1eac	0.06939444
79	0xbe010984	-0.12601286
80	0x3e59d9b9	0.21274461
81	0x3df30757	0.11866634
82	0xbc79e4a8	-0.01525227
83	0x3d398280	0.04529047
84	0x3d9db6a9	0.07700855
85	0x3d426502	0.04745961
86	0x3e304ce0	0.17216825
87	0x3e0214c8	0.1270324
88	0xbdc75914	-0.09733787
89	0xbe0f9ed6	-0.14025435
90	0xbe31e6a6	-0.17373142
91	0x3b14976a	0.0022673258
92	0xbd30196b	-0.04299299
93	0x3e12cc80	0.14335823
94	0x3db838b9	0.08995194
95	0x3cc17653	0.023615992
96	0x3dda15bd	0.106486775
97	0x3ae27829	0.0017278242
98	0x3cc141b7	0.023590906
99	0x3d10d37d	0.03535794
100	0xbd87c57e	-0.066294655
101	0x3d27c939	0.040963385
102	0x3d8f5c0c	0.069999784
103	0xbd1a04b7	-0.037602153
104	0xbc6f335c	-0.014599647
105	0xbc7fda45	-0.015616004
106	0xbe3588c7	-0.17727958
107	0x3de18fc9	0.11013753
108	0xbdf18ab3	-0.11794033
109	0x3c22b201	0.009930135
110	0x3d57f0e6	0.052719973
111	0xbddad1d4	-0.10684553
112	0x3dc498fe	0.095994934
113	0xbd3cdb6b	-0.04610769
114	0x3da1c203	0.07898333
115	0xbc28589a	-0.0102750305
116	0xbd82642a	-0.06366761
117	0x3e358096	0.17724833
118	0x3c8fb0fa	0.017540444
119	0x3e3c9d1b	0.18419306
120	0xbe7e5a84	-0.24839216
121	0xbe306800	-0.17227173
122	0x3d87d1c1	0.06631804
123	0xbdf8a4c0	-0.121407986
124	0x3ba68199	0.005081367
125	0x3c27497b	0.01021039
126	0x3e372789	0.17886175
127	0xbe199267	-0.14997254
128	0xbe16cef5	-0.14727385
129	0x3dd3c9d8	0.10341233
130	0xbe206cc9	-0.15666498
131	0x3d6b17a6	0.0573956
132	0x3abc3099	0.0014357745
133	0x3e2e1d4f	0.17003368
134	0x3bdd9ad3	0.0067628413
135	0xbde9af2b	-0.11410364
136	0xbd2acc91	-0.041698996
137	0xbe1daf92	-0.15399006
138	0x3d99b541	0.075052746
139	0xbbc2f06a	-0.0059490697
140	0x3d924a3b	0.071430646
141	0xbdb79544	-0.08964017
142	0xbd301f34	-0.042998508
143	0x3e2d3ea9	0.16918434
144	0x3c92dd0b	0.017927667
145	0x3de249d2	0.11049236
146	0x3df9b496	0.12192647
147	0x3c2390be	0.00998324
148	0xbd26c9ef	-0.040719923
149	0xbdf82ea3	-0.1211827
150	0xbd86d568	-0.06583673
151	0xbd0b6994	-0.034036234
152	0x3dfa77fa	0.12229915
153	0x3d8643f4	0.0655593
154	0xbd345262	-0.04402388
155	0x3dec9050	0.11550963
156	0xbbad2b00	-0.005284667
157	0xbe16e818	-0.14736974
158	0xbe25acf2	-0.16179255
159	0xbe16c484	-0.14723402
160	0x3d22ce63	0.039747607
161	0xbde4454d	-0.111460306
162	0xbdcc5b08	-0.099783
163	0x3d6ebf7a	0.058288075
164	0xbd42d11d	-0.047562707
165	0xbe139af2	-0.14414576
166	0x3dc220e4	0.0947893
167	0x3d616603	0.055028927
168	0x3d25365b	0.04033504
169	0x3cb8697b	0.022511235
170	0x3db746c1	0.08949042
171	0x3e1fd349	0.15607943
172	0xbe0de81a	-0.13858071
173	0x3e2918ce	0.16513368
174	0x3d1c9b6d	0.038234163
175	0xbddca34e	-0.107733354
176	0xbcca35d0	-0.024683863
177	0xbdcf3e7d	-0.101193406
178	0xbd3890eb	-0.04506008
179	0xbb0d3a21	-0.002154954
180	0x3e273702	0.16329578
181	0xbd07c22c	-0.03314416
182	0xbe27a0d0	-0.16369939
183	0xbca7c3b8	-0.020479068
184	0xbd81c44b	-0.06336268
185	0xbe273657	-0.16329323
186	0x3e052182	0.13001063
187	0x3e2b8096	0.1674827
188	0xbe252587	-0.16127597
189	0x3dbd9a3d	0.09257934
190	0x3e13b683	0.14425091
191	0xbc7dfa7e	-0.0155016165
192	0x3dc0477e	0.09388636
193	0xbe245cd0	-0.1605103
194	0x3d6cc099	0.057800863
195	0xbdbbe13f	-0.09173822
196	0xbda49fc9	-0.08038289
197	0xbdf97d3b	-0.12182089
198	0x3dab4b42	0.08363964
199	0x3dc4a45e	0.09601663
200	0x3b0d9596	0.0021604053
201	0xbd7ef34d	-0.06224375
202	0x3d4f8e6f	0.050672945
203	0xbd5d4762	-0.054023154
204	0xbdaa2b42	-0.08309032
205	0xbd04a3c1	-0.03238273
206	0x3d419fa7	0.047271397
207	0xbdec94ec	-0.11551842
208	0x3df79af1	0.120900996
209	0xbdf20e46	-0.11819129
210	0x3db7092e	0.08937298
211	0xbdfa3d25	-0.12218694
212	0x3da0d356	0.07852809
213	0xbe32ea30	-0.17472148
214	0xbe0cac45	-0.1373759
215	0x3d6b7f92	0.057494707
216	0x3d7f70ba	0.062363364
217	0x3d93c373	0.07215013
218	0x3c9a29e2	0.0188188
219	0xbc7f1f1f	-0.015571385
220	0x3e247929	0.16061844
221	0xbdf8ee51	-0.1215483
222	0xbe19dca3	-0.15025572
223	0xbd798385	-0.060916442
224	0x3e2314d5	0.15925916
225	0x3d5b0553	0.053471874
226	0x3e2174c7	0.15767203
227	0xbdf0c093	-0.117554806
228	0x3bb96ad7	0.0056584883
229	0xbc95e8e5	-0.01829953
230	0x3d996831	0.07490576
231	0xbdcae323	-0.09906604
232	0xbd959358	-0.07303494
233	0x3e251919	0.16122855
234	0x3db35f70	0.08758438
235	0x3e0750ec	0.13214463
236	0xbdc183e4	-0.09448984
237	0x3d8ca6a1	0.068677194
238	0xbdab6613	-0.083690785
239	0x3d80763b	0.06272551
240	0x3e0335e3	0.12813525
241	0x3b2ea5a7	0.002664903
242	0x3bf7c6a9	0.007561524
243	0xbe189367	-0.1489998
244	0xbe1b5b89	-0.15171637
245	0xbe0c364b	-0.13692586
246	0x3de28067	0.11059647
247	0xbce83d0d	-0.028349424
248	0x3e004e22	0.12529805
249	0x3e01e683	0.1268559
250	0xbdf3c1e8	-0.11902219
251	0xbd725017	-0.05915841
252	0xbdb8ade9	-0.09017546
253	0xbe2560e0	-0.16150236
254	0xbe1f14f5	-0.15535338
255	0x3e28441f	0.16432236

fc2.bias f4 [32]
0	0xbd370a09	-0.044687305
1	0x3e04ae84	0.12957197
2	0xbdb404e3	-0.087899946
3	0xbc7ce3c7	-0.015435166
4	0x3d461793	0.048362326
5	0x3ded0870	0.11573875
6	0x3d9096e3	0.07060029
7	0xbe1488c3	-0.14505295
8	0x3d85c662	0.06531979
9	0xbe2db4cc	-0.169635
10	0xbe1c04db	-0.15236227
11	0xbde5b9d1	-0.11217082
12	0x3d96f796	0.07371442
13	0x3e255417	0.16145359
14	0xbe168f8b	-0.14703195
15	0xbdbd9a54	-0.092579514
16	0xbb77e5c6	-0.0037826165
17	0x3e343793	0.17599325
18	0x3e1dde3f	0.15416811
19	0xbd73ec91	-0.05955178
20	0x3d8ef8a4	0.06981018
21	0xbd6691ce	-0.056291394
22	0xbdf3ab20	-0.11897874
23	0x3c863dbe	0.016386863
24	0xbd9cf174	-0.07663241
25	0xbe2ca418	-0.16859472
26	0x3e09bc89	0.13450827
27	0xbd10457e	-0.035222523
28	0xbd8b0ef8	-0.067899644
29	0xbc9e66a7	-0.019336058
30	0xbe0cf90b	-0.13766877
31	0x3d53981a	0.051658727

fc3.weight f4 [1, 32]
0	0x3e805801	0.25067142
1	0x3e9062a5	0.2820026
2	0x3e06c580	0.13161278
3	0x3dfc5ef8	0.12322801
4	0xbdbbd2e5	-0.09171084
5	0xbd726dd1	-0.05918676
6	0x3d28103e	0.041031115
7	0xbb95054b	-0.00454775
8	0x3dc9b96e	0.09849821
9	0x3dea133e	0.114294514
10	0x3e15621d	0.14588208
11	0xbe445506	-0.19173059
12	0xbd926b79	-0.07149405
13	0x3df31dde	0.11870931
14	0xbda90241	-0.08252383
15	0x3de88f2a	0.113554314
16	0x3e340ce3	0.17583041
17	0x3e038846	0.12844953
18	0x3df3474a	0.11878832
19	0xbd58d94b	-0.0529416
20	0xbdd04af7	-0.101705484
21	0xbd3e0e8f	-0.046400603
22	0xbd40d314	-0.0470763
23	0xbe08c6da	-0.13357106
24	0xbdd94bcd	-0.10610161
25	0xbd3cba8a	-0.046076335
26	0x3e2e341e	0.17012069
27	0x3de04ce7	0.10952168
28	0xbea8ef86	-0.32995242
29	0x3e26ed39	0.16301431
30	0xbe574c5f	-0.21025227
31	0x3c0f1dc6	0.008735126
